nohup: ignoring input
Using TensorFlow backend.
Path test exists. Remove and remake.
__________________________________________________________________________________________________
Layer (type)                    Output Shape         Param #     Connected to                     
==================================================================================================
input_1 (InputLayer)            (None, 32, 32, 3)    0                                            
__________________________________________________________________________________________________
conv2d_1 (Conv2D)               (None, 32, 32, 96)   2688        input_1[0][0]                    
__________________________________________________________________________________________________
batch_normalization_1 (BatchNor (None, 32, 32, 96)   384         conv2d_1[0][0]                   
__________________________________________________________________________________________________
activation_1 (Activation)       (None, 32, 32, 96)   0           batch_normalization_1[0][0]      
__________________________________________________________________________________________________
conv2d_2 (Conv2D)               (None, 32, 32, 96)   9312        activation_1[0][0]               
__________________________________________________________________________________________________
batch_normalization_2 (BatchNor (None, 32, 32, 96)   384         conv2d_2[0][0]                   
__________________________________________________________________________________________________
activation_2 (Activation)       (None, 32, 32, 96)   0           batch_normalization_2[0][0]      
__________________________________________________________________________________________________
conv2d_3 (Conv2D)               (None, 32, 32, 96)   230496      activation_2[0][0]               
__________________________________________________________________________________________________
batch_normalization_3 (BatchNor (None, 32, 32, 96)   384         conv2d_3[0][0]                   
__________________________________________________________________________________________________
activation_3 (Activation)       (None, 32, 32, 96)   0           batch_normalization_3[0][0]      
__________________________________________________________________________________________________
conv2d_4 (Conv2D)               (None, 32, 32, 96)   9312        activation_3[0][0]               
__________________________________________________________________________________________________
batch_normalization_4 (BatchNor (None, 32, 32, 96)   384         conv2d_4[0][0]                   
__________________________________________________________________________________________________
activation_4 (Activation)       (None, 32, 32, 96)   0           batch_normalization_4[0][0]      
__________________________________________________________________________________________________
conv2d_5 (Conv2D)               (None, 32, 32, 96)   9312        activation_4[0][0]               
__________________________________________________________________________________________________
batch_normalization_5 (BatchNor (None, 32, 32, 96)   384         conv2d_5[0][0]                   
__________________________________________________________________________________________________
activation_5 (Activation)       (None, 32, 32, 96)   0           batch_normalization_5[0][0]      
__________________________________________________________________________________________________
conv2d_6 (Conv2D)               (None, 32, 32, 96)   230496      activation_5[0][0]               
__________________________________________________________________________________________________
batch_normalization_6 (BatchNor (None, 32, 32, 96)   384         conv2d_6[0][0]                   
__________________________________________________________________________________________________
activation_6 (Activation)       (None, 32, 32, 96)   0           batch_normalization_6[0][0]      
__________________________________________________________________________________________________
conv2d_7 (Conv2D)               (None, 32, 32, 96)   9312        activation_6[0][0]               
__________________________________________________________________________________________________
batch_normalization_7 (BatchNor (None, 32, 32, 96)   384         conv2d_7[0][0]                   
__________________________________________________________________________________________________
activation_7 (Activation)       (None, 32, 32, 96)   0           batch_normalization_7[0][0]      
__________________________________________________________________________________________________
conv2d_8 (Conv2D)               (None, 32, 32, 96)   9312        activation_7[0][0]               
__________________________________________________________________________________________________
batch_normalization_8 (BatchNor (None, 32, 32, 96)   384         conv2d_8[0][0]                   
__________________________________________________________________________________________________
activation_8 (Activation)       (None, 32, 32, 96)   0           batch_normalization_8[0][0]      
__________________________________________________________________________________________________
conv2d_9 (Conv2D)               (None, 32, 32, 96)   230496      activation_8[0][0]               
__________________________________________________________________________________________________
batch_normalization_9 (BatchNor (None, 32, 32, 96)   384         conv2d_9[0][0]                   
__________________________________________________________________________________________________
concatenate_1 (Concatenate)     (None, 32, 32, 192)  0           batch_normalization_7[0][0]      
                                                                 batch_normalization_9[0][0]      
__________________________________________________________________________________________________
activation_9 (Activation)       (None, 32, 32, 192)  0           concatenate_1[0][0]              
__________________________________________________________________________________________________
conv2d_10 (Conv2D)              (None, 32, 32, 96)   18528       activation_9[0][0]               
__________________________________________________________________________________________________
batch_normalization_10 (BatchNo (None, 32, 32, 96)   384         conv2d_10[0][0]                  
__________________________________________________________________________________________________
activation_10 (Activation)      (None, 32, 32, 96)   0           batch_normalization_10[0][0]     
__________________________________________________________________________________________________
conv2d_11 (Conv2D)              (None, 32, 32, 96)   9312        activation_10[0][0]              
__________________________________________________________________________________________________
batch_normalization_11 (BatchNo (None, 32, 32, 96)   384         conv2d_11[0][0]                  
__________________________________________________________________________________________________
activation_11 (Activation)      (None, 32, 32, 96)   0           batch_normalization_11[0][0]     
__________________________________________________________________________________________________
conv2d_12 (Conv2D)              (None, 32, 32, 96)   83040       activation_11[0][0]              
__________________________________________________________________________________________________
batch_normalization_12 (BatchNo (None, 32, 32, 96)   384         conv2d_12[0][0]                  
__________________________________________________________________________________________________
concatenate_2 (Concatenate)     (None, 32, 32, 192)  0           batch_normalization_10[0][0]     
                                                                 batch_normalization_12[0][0]     
__________________________________________________________________________________________________
activation_12 (Activation)      (None, 32, 32, 192)  0           concatenate_2[0][0]              
__________________________________________________________________________________________________
conv2d_13 (Conv2D)              (None, 32, 32, 96)   18528       activation_12[0][0]              
__________________________________________________________________________________________________
batch_normalization_13 (BatchNo (None, 32, 32, 96)   384         conv2d_13[0][0]                  
__________________________________________________________________________________________________
activation_13 (Activation)      (None, 32, 32, 96)   0           batch_normalization_13[0][0]     
__________________________________________________________________________________________________
conv2d_14 (Conv2D)              (None, 32, 32, 96)   9312        activation_13[0][0]              
__________________________________________________________________________________________________
batch_normalization_14 (BatchNo (None, 32, 32, 96)   384         conv2d_14[0][0]                  
__________________________________________________________________________________________________
activation_14 (Activation)      (None, 32, 32, 96)   0           batch_normalization_14[0][0]     
__________________________________________________________________________________________________
conv2d_15 (Conv2D)              (None, 32, 32, 96)   83040       activation_14[0][0]              
__________________________________________________________________________________________________
batch_normalization_15 (BatchNo (None, 32, 32, 96)   384         conv2d_15[0][0]                  
__________________________________________________________________________________________________
concatenate_3 (Concatenate)     (None, 32, 32, 192)  0           batch_normalization_4[0][0]      
                                                                 batch_normalization_15[0][0]     
__________________________________________________________________________________________________
activation_15 (Activation)      (None, 32, 32, 192)  0           concatenate_3[0][0]              
__________________________________________________________________________________________________
conv2d_16 (Conv2D)              (None, 32, 32, 96)   18528       activation_15[0][0]              
__________________________________________________________________________________________________
batch_normalization_16 (BatchNo (None, 32, 32, 96)   384         conv2d_16[0][0]                  
__________________________________________________________________________________________________
activation_16 (Activation)      (None, 32, 32, 96)   0           batch_normalization_16[0][0]     
__________________________________________________________________________________________________
conv2d_17 (Conv2D)              (None, 32, 32, 96)   9312        activation_16[0][0]              
__________________________________________________________________________________________________
batch_normalization_17 (BatchNo (None, 32, 32, 96)   384         conv2d_17[0][0]                  
__________________________________________________________________________________________________
activation_17 (Activation)      (None, 32, 32, 96)   0           batch_normalization_17[0][0]     
__________________________________________________________________________________________________
concatenate_4 (Concatenate)     (None, 32, 32, 192)  0           batch_normalization_4[0][0]      
                                                                 batch_normalization_7[0][0]      
__________________________________________________________________________________________________
conv2d_18 (Conv2D)              (None, 32, 32, 96)   83040       activation_17[0][0]              
__________________________________________________________________________________________________
concatenate_5 (Concatenate)     (None, 32, 32, 288)  0           concatenate_4[0][0]              
                                                                 batch_normalization_16[0][0]     
__________________________________________________________________________________________________
batch_normalization_18 (BatchNo (None, 32, 32, 96)   384         conv2d_18[0][0]                  
__________________________________________________________________________________________________
concatenate_6 (Concatenate)     (None, 32, 32, 384)  0           concatenate_5[0][0]              
                                                                 batch_normalization_18[0][0]     
__________________________________________________________________________________________________
activation_18 (Activation)      (None, 32, 32, 384)  0           concatenate_6[0][0]              
__________________________________________________________________________________________________
conv2d_19 (Conv2D)              (None, 32, 32, 96)   36960       activation_18[0][0]              
__________________________________________________________________________________________________
batch_normalization_19 (BatchNo (None, 32, 32, 96)   384         conv2d_19[0][0]                  
__________________________________________________________________________________________________
activation_19 (Activation)      (None, 32, 32, 96)   0           batch_normalization_19[0][0]     
__________________________________________________________________________________________________
conv2d_20 (Conv2D)              (None, 32, 32, 96)   9312        activation_19[0][0]              
__________________________________________________________________________________________________
batch_normalization_20 (BatchNo (None, 32, 32, 96)   384         conv2d_20[0][0]                  
__________________________________________________________________________________________________
activation_20 (Activation)      (None, 32, 32, 96)   0           batch_normalization_20[0][0]     
__________________________________________________________________________________________________
conv2d_21 (Conv2D)              (None, 32, 32, 96)   83040       activation_20[0][0]              
__________________________________________________________________________________________________
batch_normalization_21 (BatchNo (None, 32, 32, 96)   384         conv2d_21[0][0]                  
__________________________________________________________________________________________________
concatenate_7 (Concatenate)     (None, 32, 32, 192)  0           batch_normalization_4[0][0]      
                                                                 batch_normalization_21[0][0]     
__________________________________________________________________________________________________
activation_21 (Activation)      (None, 32, 32, 192)  0           concatenate_7[0][0]              
__________________________________________________________________________________________________
conv2d_22 (Conv2D)              (None, 32, 32, 96)   18528       activation_21[0][0]              
__________________________________________________________________________________________________
batch_normalization_22 (BatchNo (None, 32, 32, 96)   384         conv2d_22[0][0]                  
__________________________________________________________________________________________________
activation_22 (Activation)      (None, 32, 32, 96)   0           batch_normalization_22[0][0]     
__________________________________________________________________________________________________
conv2d_23 (Conv2D)              (None, 32, 32, 96)   9312        activation_22[0][0]              
__________________________________________________________________________________________________
batch_normalization_23 (BatchNo (None, 32, 32, 96)   384         conv2d_23[0][0]                  
__________________________________________________________________________________________________
activation_23 (Activation)      (None, 32, 32, 96)   0           batch_normalization_23[0][0]     
__________________________________________________________________________________________________
conv2d_24 (Conv2D)              (None, 32, 32, 96)   230496      activation_23[0][0]              
__________________________________________________________________________________________________
batch_normalization_24 (BatchNo (None, 32, 32, 96)   384         conv2d_24[0][0]                  
__________________________________________________________________________________________________
activation_24 (Activation)      (None, 32, 32, 96)   0           batch_normalization_24[0][0]     
__________________________________________________________________________________________________
conv2d_25 (Conv2D)              (None, 32, 32, 96)   9312        activation_24[0][0]              
__________________________________________________________________________________________________
batch_normalization_25 (BatchNo (None, 32, 32, 96)   384         conv2d_25[0][0]                  
__________________________________________________________________________________________________
average_pooling2d_1 (AveragePoo (None, 16, 16, 96)   0           batch_normalization_25[0][0]     
__________________________________________________________________________________________________
average_pooling2d_2 (AveragePoo (None, 16, 16, 96)   0           batch_normalization_25[0][0]     
__________________________________________________________________________________________________
conv2d_26 (Conv2D)              (None, 16, 16, 96)   9312        average_pooling2d_1[0][0]        
__________________________________________________________________________________________________
conv2d_27 (Conv2D)              (None, 16, 16, 96)   9312        average_pooling2d_2[0][0]        
__________________________________________________________________________________________________
concatenate_8 (Concatenate)     (None, 16, 16, 192)  0           conv2d_26[0][0]                  
                                                                 conv2d_27[0][0]                  
__________________________________________________________________________________________________
batch_normalization_26 (BatchNo (None, 16, 16, 192)  768         concatenate_8[0][0]              
__________________________________________________________________________________________________
activation_25 (Activation)      (None, 16, 16, 192)  0           batch_normalization_26[0][0]     
__________________________________________________________________________________________________
average_pooling2d_13 (AveragePo (None, 16, 16, 96)   0           batch_normalization_7[0][0]      
__________________________________________________________________________________________________
average_pooling2d_14 (AveragePo (None, 16, 16, 96)   0           batch_normalization_7[0][0]      
__________________________________________________________________________________________________
average_pooling2d_11 (AveragePo (None, 16, 16, 96)   0           batch_normalization_10[0][0]     
__________________________________________________________________________________________________
average_pooling2d_12 (AveragePo (None, 16, 16, 96)   0           batch_normalization_10[0][0]     
__________________________________________________________________________________________________
conv2d_42 (Conv2D)              (None, 16, 16, 192)  37056       activation_25[0][0]              
__________________________________________________________________________________________________
conv2d_38 (Conv2D)              (None, 16, 16, 96)   9312        average_pooling2d_13[0][0]       
__________________________________________________________________________________________________
conv2d_39 (Conv2D)              (None, 16, 16, 96)   9312        average_pooling2d_14[0][0]       
__________________________________________________________________________________________________
conv2d_36 (Conv2D)              (None, 16, 16, 96)   9312        average_pooling2d_11[0][0]       
__________________________________________________________________________________________________
conv2d_37 (Conv2D)              (None, 16, 16, 96)   9312        average_pooling2d_12[0][0]       
__________________________________________________________________________________________________
batch_normalization_34 (BatchNo (None, 16, 16, 192)  768         conv2d_42[0][0]                  
__________________________________________________________________________________________________
concatenate_14 (Concatenate)    (None, 16, 16, 192)  0           conv2d_38[0][0]                  
                                                                 conv2d_39[0][0]                  
__________________________________________________________________________________________________
concatenate_13 (Concatenate)    (None, 16, 16, 192)  0           conv2d_36[0][0]                  
                                                                 conv2d_37[0][0]                  
__________________________________________________________________________________________________
activation_26 (Activation)      (None, 16, 16, 192)  0           batch_normalization_34[0][0]     
__________________________________________________________________________________________________
batch_normalization_32 (BatchNo (None, 16, 16, 192)  768         concatenate_14[0][0]             
__________________________________________________________________________________________________
batch_normalization_31 (BatchNo (None, 16, 16, 192)  768         concatenate_13[0][0]             
__________________________________________________________________________________________________
conv2d_43 (Conv2D)              (None, 16, 16, 192)  331968      activation_26[0][0]              
__________________________________________________________________________________________________
concatenate_16 (Concatenate)    (None, 16, 16, 384)  0           batch_normalization_32[0][0]     
                                                                 batch_normalization_31[0][0]     
__________________________________________________________________________________________________
batch_normalization_35 (BatchNo (None, 16, 16, 192)  768         conv2d_43[0][0]                  
__________________________________________________________________________________________________
concatenate_17 (Concatenate)    (None, 16, 16, 576)  0           concatenate_16[0][0]             
                                                                 batch_normalization_35[0][0]     
__________________________________________________________________________________________________
activation_27 (Activation)      (None, 16, 16, 576)  0           concatenate_17[0][0]             
__________________________________________________________________________________________________
conv2d_44 (Conv2D)              (None, 16, 16, 192)  110784      activation_27[0][0]              
__________________________________________________________________________________________________
average_pooling2d_15 (AveragePo (None, 16, 16, 96)   0           batch_normalization_4[0][0]      
__________________________________________________________________________________________________
average_pooling2d_16 (AveragePo (None, 16, 16, 96)   0           batch_normalization_4[0][0]      
__________________________________________________________________________________________________
batch_normalization_36 (BatchNo (None, 16, 16, 192)  768         conv2d_44[0][0]                  
__________________________________________________________________________________________________
conv2d_40 (Conv2D)              (None, 16, 16, 96)   9312        average_pooling2d_15[0][0]       
__________________________________________________________________________________________________
conv2d_41 (Conv2D)              (None, 16, 16, 96)   9312        average_pooling2d_16[0][0]       
__________________________________________________________________________________________________
activation_28 (Activation)      (None, 16, 16, 192)  0           batch_normalization_36[0][0]     
__________________________________________________________________________________________________
concatenate_15 (Concatenate)    (None, 16, 16, 192)  0           conv2d_40[0][0]                  
                                                                 conv2d_41[0][0]                  
__________________________________________________________________________________________________
average_pooling2d_9 (AveragePoo (None, 16, 16, 96)   0           batch_normalization_13[0][0]     
__________________________________________________________________________________________________
average_pooling2d_10 (AveragePo (None, 16, 16, 96)   0           batch_normalization_13[0][0]     
__________________________________________________________________________________________________
conv2d_45 (Conv2D)              (None, 16, 16, 192)  37056       activation_28[0][0]              
__________________________________________________________________________________________________
batch_normalization_33 (BatchNo (None, 16, 16, 192)  768         concatenate_15[0][0]             
__________________________________________________________________________________________________
conv2d_34 (Conv2D)              (None, 16, 16, 96)   9312        average_pooling2d_9[0][0]        
__________________________________________________________________________________________________
conv2d_35 (Conv2D)              (None, 16, 16, 96)   9312        average_pooling2d_10[0][0]       
__________________________________________________________________________________________________
batch_normalization_37 (BatchNo (None, 16, 16, 192)  768         conv2d_45[0][0]                  
__________________________________________________________________________________________________
concatenate_12 (Concatenate)    (None, 16, 16, 192)  0           conv2d_34[0][0]                  
                                                                 conv2d_35[0][0]                  
__________________________________________________________________________________________________
concatenate_18 (Concatenate)    (None, 16, 16, 384)  0           batch_normalization_33[0][0]     
                                                                 batch_normalization_32[0][0]     
__________________________________________________________________________________________________
activation_29 (Activation)      (None, 16, 16, 192)  0           batch_normalization_37[0][0]     
__________________________________________________________________________________________________
batch_normalization_30 (BatchNo (None, 16, 16, 192)  768         concatenate_12[0][0]             
__________________________________________________________________________________________________
concatenate_19 (Concatenate)    (None, 16, 16, 576)  0           concatenate_18[0][0]             
                                                                 batch_normalization_31[0][0]     
__________________________________________________________________________________________________
conv2d_46 (Conv2D)              (None, 16, 16, 192)  921792      activation_29[0][0]              
__________________________________________________________________________________________________
concatenate_20 (Concatenate)    (None, 16, 16, 768)  0           concatenate_19[0][0]             
                                                                 batch_normalization_30[0][0]     
__________________________________________________________________________________________________
batch_normalization_38 (BatchNo (None, 16, 16, 192)  768         conv2d_46[0][0]                  
__________________________________________________________________________________________________
concatenate_21 (Concatenate)    (None, 16, 16, 960)  0           concatenate_20[0][0]             
                                                                 batch_normalization_38[0][0]     
__________________________________________________________________________________________________
activation_30 (Activation)      (None, 16, 16, 960)  0           concatenate_21[0][0]             
__________________________________________________________________________________________________
conv2d_47 (Conv2D)              (None, 16, 16, 192)  184512      activation_30[0][0]              
__________________________________________________________________________________________________
batch_normalization_39 (BatchNo (None, 16, 16, 192)  768         conv2d_47[0][0]                  
__________________________________________________________________________________________________
activation_31 (Activation)      (None, 16, 16, 192)  0           batch_normalization_39[0][0]     
__________________________________________________________________________________________________
conv2d_48 (Conv2D)              (None, 16, 16, 192)  37056       activation_31[0][0]              
__________________________________________________________________________________________________
batch_normalization_40 (BatchNo (None, 16, 16, 192)  768         conv2d_48[0][0]                  
__________________________________________________________________________________________________
activation_32 (Activation)      (None, 16, 16, 192)  0           batch_normalization_40[0][0]     
__________________________________________________________________________________________________
concatenate_22 (Concatenate)    (None, 16, 16, 384)  0           batch_normalization_33[0][0]     
                                                                 batch_normalization_30[0][0]     
__________________________________________________________________________________________________
conv2d_49 (Conv2D)              (None, 16, 16, 192)  331968      activation_32[0][0]              
__________________________________________________________________________________________________
concatenate_23 (Concatenate)    (None, 16, 16, 576)  0           concatenate_22[0][0]             
                                                                 batch_normalization_39[0][0]     
__________________________________________________________________________________________________
batch_normalization_41 (BatchNo (None, 16, 16, 192)  768         conv2d_49[0][0]                  
__________________________________________________________________________________________________
concatenate_24 (Concatenate)    (None, 16, 16, 768)  0           concatenate_23[0][0]             
                                                                 batch_normalization_41[0][0]     
__________________________________________________________________________________________________
activation_33 (Activation)      (None, 16, 16, 768)  0           concatenate_24[0][0]             
__________________________________________________________________________________________________
conv2d_50 (Conv2D)              (None, 16, 16, 192)  147648      activation_33[0][0]              
__________________________________________________________________________________________________
average_pooling2d_7 (AveragePoo (None, 16, 16, 96)   0           batch_normalization_16[0][0]     
__________________________________________________________________________________________________
average_pooling2d_8 (AveragePoo (None, 16, 16, 96)   0           batch_normalization_16[0][0]     
__________________________________________________________________________________________________
batch_normalization_42 (BatchNo (None, 16, 16, 192)  768         conv2d_50[0][0]                  
__________________________________________________________________________________________________
conv2d_32 (Conv2D)              (None, 16, 16, 96)   9312        average_pooling2d_7[0][0]        
__________________________________________________________________________________________________
conv2d_33 (Conv2D)              (None, 16, 16, 96)   9312        average_pooling2d_8[0][0]        
__________________________________________________________________________________________________
average_pooling2d_5 (AveragePoo (None, 16, 16, 96)   0           batch_normalization_19[0][0]     
__________________________________________________________________________________________________
average_pooling2d_6 (AveragePoo (None, 16, 16, 96)   0           batch_normalization_19[0][0]     
__________________________________________________________________________________________________
activation_34 (Activation)      (None, 16, 16, 192)  0           batch_normalization_42[0][0]     
__________________________________________________________________________________________________
concatenate_11 (Concatenate)    (None, 16, 16, 192)  0           conv2d_32[0][0]                  
                                                                 conv2d_33[0][0]                  
__________________________________________________________________________________________________
conv2d_30 (Conv2D)              (None, 16, 16, 96)   9312        average_pooling2d_5[0][0]        
__________________________________________________________________________________________________
conv2d_31 (Conv2D)              (None, 16, 16, 96)   9312        average_pooling2d_6[0][0]        
__________________________________________________________________________________________________
conv2d_51 (Conv2D)              (None, 16, 16, 192)  37056       activation_34[0][0]              
__________________________________________________________________________________________________
batch_normalization_29 (BatchNo (None, 16, 16, 192)  768         concatenate_11[0][0]             
__________________________________________________________________________________________________
concatenate_25 (Concatenate)    (None, 16, 16, 384)  0           batch_normalization_32[0][0]     
                                                                 batch_normalization_30[0][0]     
__________________________________________________________________________________________________
concatenate_10 (Concatenate)    (None, 16, 16, 192)  0           conv2d_30[0][0]                  
                                                                 conv2d_31[0][0]                  
__________________________________________________________________________________________________
batch_normalization_43 (BatchNo (None, 16, 16, 192)  768         conv2d_51[0][0]                  
__________________________________________________________________________________________________
concatenate_26 (Concatenate)    (None, 16, 16, 576)  0           concatenate_25[0][0]             
                                                                 batch_normalization_29[0][0]     
__________________________________________________________________________________________________
batch_normalization_28 (BatchNo (None, 16, 16, 192)  768         concatenate_10[0][0]             
__________________________________________________________________________________________________
activation_35 (Activation)      (None, 16, 16, 192)  0           batch_normalization_43[0][0]     
__________________________________________________________________________________________________
concatenate_27 (Concatenate)    (None, 16, 16, 768)  0           concatenate_26[0][0]             
                                                                 batch_normalization_28[0][0]     
__________________________________________________________________________________________________
conv2d_52 (Conv2D)              (None, 16, 16, 192)  331968      activation_35[0][0]              
__________________________________________________________________________________________________
concatenate_28 (Concatenate)    (None, 16, 16, 960)  0           concatenate_27[0][0]             
                                                                 batch_normalization_39[0][0]     
__________________________________________________________________________________________________
batch_normalization_44 (BatchNo (None, 16, 16, 192)  768         conv2d_52[0][0]                  
__________________________________________________________________________________________________
concatenate_29 (Concatenate)    (None, 16, 16, 1152) 0           concatenate_28[0][0]             
                                                                 batch_normalization_44[0][0]     
__________________________________________________________________________________________________
activation_36 (Activation)      (None, 16, 16, 1152) 0           concatenate_29[0][0]             
__________________________________________________________________________________________________
conv2d_53 (Conv2D)              (None, 16, 16, 192)  221376      activation_36[0][0]              
__________________________________________________________________________________________________
batch_normalization_45 (BatchNo (None, 16, 16, 192)  768         conv2d_53[0][0]                  
__________________________________________________________________________________________________
activation_37 (Activation)      (None, 16, 16, 192)  0           batch_normalization_45[0][0]     
__________________________________________________________________________________________________
conv2d_54 (Conv2D)              (None, 16, 16, 192)  37056       activation_37[0][0]              
__________________________________________________________________________________________________
batch_normalization_46 (BatchNo (None, 16, 16, 192)  768         conv2d_54[0][0]                  
__________________________________________________________________________________________________
concatenate_30 (Concatenate)    (None, 16, 16, 384)  0           batch_normalization_32[0][0]     
                                                                 batch_normalization_30[0][0]     
__________________________________________________________________________________________________
activation_38 (Activation)      (None, 16, 16, 192)  0           batch_normalization_46[0][0]     
__________________________________________________________________________________________________
concatenate_31 (Concatenate)    (None, 16, 16, 576)  0           concatenate_30[0][0]             
                                                                 batch_normalization_26[0][0]     
__________________________________________________________________________________________________
conv2d_55 (Conv2D)              (None, 16, 16, 192)  921792      activation_38[0][0]              
__________________________________________________________________________________________________
concatenate_32 (Concatenate)    (None, 16, 16, 768)  0           concatenate_31[0][0]             
                                                                 batch_normalization_36[0][0]     
__________________________________________________________________________________________________
batch_normalization_47 (BatchNo (None, 16, 16, 192)  768         conv2d_55[0][0]                  
__________________________________________________________________________________________________
concatenate_33 (Concatenate)    (None, 16, 16, 960)  0           concatenate_32[0][0]             
                                                                 batch_normalization_47[0][0]     
__________________________________________________________________________________________________
activation_39 (Activation)      (None, 16, 16, 960)  0           concatenate_33[0][0]             
__________________________________________________________________________________________________
conv2d_56 (Conv2D)              (None, 16, 16, 192)  184512      activation_39[0][0]              
__________________________________________________________________________________________________
batch_normalization_48 (BatchNo (None, 16, 16, 192)  768         conv2d_56[0][0]                  
__________________________________________________________________________________________________
activation_40 (Activation)      (None, 16, 16, 192)  0           batch_normalization_48[0][0]     
__________________________________________________________________________________________________
average_pooling2d_3 (AveragePoo (None, 16, 16, 96)   0           batch_normalization_22[0][0]     
__________________________________________________________________________________________________
average_pooling2d_4 (AveragePoo (None, 16, 16, 96)   0           batch_normalization_22[0][0]     
__________________________________________________________________________________________________
conv2d_57 (Conv2D)              (None, 16, 16, 192)  37056       activation_40[0][0]              
__________________________________________________________________________________________________
conv2d_28 (Conv2D)              (None, 16, 16, 96)   9312        average_pooling2d_3[0][0]        
__________________________________________________________________________________________________
conv2d_29 (Conv2D)              (None, 16, 16, 96)   9312        average_pooling2d_4[0][0]        
__________________________________________________________________________________________________
batch_normalization_49 (BatchNo (None, 16, 16, 192)  768         conv2d_57[0][0]                  
__________________________________________________________________________________________________
concatenate_34 (Concatenate)    (None, 16, 16, 384)  0           batch_normalization_32[0][0]     
                                                                 batch_normalization_31[0][0]     
__________________________________________________________________________________________________
concatenate_9 (Concatenate)     (None, 16, 16, 192)  0           conv2d_28[0][0]                  
                                                                 conv2d_29[0][0]                  
__________________________________________________________________________________________________
activation_41 (Activation)      (None, 16, 16, 192)  0           batch_normalization_49[0][0]     
__________________________________________________________________________________________________
concatenate_35 (Concatenate)    (None, 16, 16, 576)  0           concatenate_34[0][0]             
                                                                 batch_normalization_30[0][0]     
__________________________________________________________________________________________________
batch_normalization_27 (BatchNo (None, 16, 16, 192)  768         concatenate_9[0][0]              
__________________________________________________________________________________________________
conv2d_58 (Conv2D)              (None, 16, 16, 192)  921792      activation_41[0][0]              
__________________________________________________________________________________________________
concatenate_36 (Concatenate)    (None, 16, 16, 768)  0           concatenate_35[0][0]             
                                                                 batch_normalization_27[0][0]     
__________________________________________________________________________________________________
batch_normalization_50 (BatchNo (None, 16, 16, 192)  768         conv2d_58[0][0]                  
__________________________________________________________________________________________________
concatenate_37 (Concatenate)    (None, 16, 16, 960)  0           concatenate_36[0][0]             
                                                                 batch_normalization_50[0][0]     
__________________________________________________________________________________________________
activation_42 (Activation)      (None, 16, 16, 960)  0           concatenate_37[0][0]             
__________________________________________________________________________________________________
conv2d_59 (Conv2D)              (None, 16, 16, 192)  184512      activation_42[0][0]              
__________________________________________________________________________________________________
batch_normalization_51 (BatchNo (None, 16, 16, 192)  768         conv2d_59[0][0]                  
__________________________________________________________________________________________________
activation_43 (Activation)      (None, 16, 16, 192)  0           batch_normalization_51[0][0]     
__________________________________________________________________________________________________
conv2d_60 (Conv2D)              (None, 16, 16, 192)  37056       activation_43[0][0]              
__________________________________________________________________________________________________
concatenate_38 (Concatenate)    (None, 16, 16, 384)  0           batch_normalization_29[0][0]     
                                                                 batch_normalization_28[0][0]     
__________________________________________________________________________________________________
batch_normalization_52 (BatchNo (None, 16, 16, 192)  768         conv2d_60[0][0]                  
__________________________________________________________________________________________________
concatenate_39 (Concatenate)    (None, 16, 16, 576)  0           concatenate_38[0][0]             
                                                                 batch_normalization_36[0][0]     
__________________________________________________________________________________________________
activation_44 (Activation)      (None, 16, 16, 192)  0           batch_normalization_52[0][0]     
__________________________________________________________________________________________________
concatenate_40 (Concatenate)    (None, 16, 16, 768)  0           concatenate_39[0][0]             
                                                                 batch_normalization_42[0][0]     
__________________________________________________________________________________________________
conv2d_61 (Conv2D)              (None, 16, 16, 192)  331968      activation_44[0][0]              
__________________________________________________________________________________________________
concatenate_41 (Concatenate)    (None, 16, 16, 960)  0           concatenate_40[0][0]             
                                                                 batch_normalization_48[0][0]     
__________________________________________________________________________________________________
batch_normalization_53 (BatchNo (None, 16, 16, 192)  768         conv2d_61[0][0]                  
__________________________________________________________________________________________________
concatenate_42 (Concatenate)    (None, 16, 16, 1152) 0           concatenate_41[0][0]             
                                                                 batch_normalization_53[0][0]     
__________________________________________________________________________________________________
activation_45 (Activation)      (None, 16, 16, 1152) 0           concatenate_42[0][0]             
__________________________________________________________________________________________________
conv2d_62 (Conv2D)              (None, 16, 16, 192)  221376      activation_45[0][0]              
__________________________________________________________________________________________________
batch_normalization_54 (BatchNo (None, 16, 16, 192)  768         conv2d_62[0][0]                  
__________________________________________________________________________________________________
activation_46 (Activation)      (None, 16, 16, 192)  0           batch_normalization_54[0][0]     
__________________________________________________________________________________________________
conv2d_63 (Conv2D)              (None, 16, 16, 192)  37056       activation_46[0][0]              
__________________________________________________________________________________________________
concatenate_43 (Concatenate)    (None, 16, 16, 384)  0           batch_normalization_33[0][0]     
                                                                 batch_normalization_32[0][0]     
__________________________________________________________________________________________________
batch_normalization_55 (BatchNo (None, 16, 16, 192)  768         conv2d_63[0][0]                  
__________________________________________________________________________________________________
concatenate_44 (Concatenate)    (None, 16, 16, 576)  0           concatenate_43[0][0]             
                                                                 batch_normalization_31[0][0]     
__________________________________________________________________________________________________
activation_47 (Activation)      (None, 16, 16, 192)  0           batch_normalization_55[0][0]     
__________________________________________________________________________________________________
concatenate_45 (Concatenate)    (None, 16, 16, 768)  0           concatenate_44[0][0]             
                                                                 batch_normalization_30[0][0]     
__________________________________________________________________________________________________
conv2d_64 (Conv2D)              (None, 16, 16, 192)  921792      activation_47[0][0]              
__________________________________________________________________________________________________
concatenate_46 (Concatenate)    (None, 16, 16, 960)  0           concatenate_45[0][0]             
                                                                 batch_normalization_28[0][0]     
__________________________________________________________________________________________________
batch_normalization_56 (BatchNo (None, 16, 16, 192)  768         conv2d_64[0][0]                  
__________________________________________________________________________________________________
concatenate_47 (Concatenate)    (None, 16, 16, 1152) 0           concatenate_46[0][0]             
                                                                 batch_normalization_56[0][0]     
__________________________________________________________________________________________________
activation_48 (Activation)      (None, 16, 16, 1152) 0           concatenate_47[0][0]             
__________________________________________________________________________________________________
conv2d_65 (Conv2D)              (None, 16, 16, 192)  221376      activation_48[0][0]              
__________________________________________________________________________________________________
batch_normalization_57 (BatchNo (None, 16, 16, 192)  768         conv2d_65[0][0]                  
__________________________________________________________________________________________________
average_pooling2d_17 (AveragePo (None, 8, 8, 192)    0           batch_normalization_57[0][0]     
__________________________________________________________________________________________________
average_pooling2d_18 (AveragePo (None, 8, 8, 192)    0           batch_normalization_57[0][0]     
__________________________________________________________________________________________________
conv2d_66 (Conv2D)              (None, 8, 8, 192)    37056       average_pooling2d_17[0][0]       
__________________________________________________________________________________________________
conv2d_67 (Conv2D)              (None, 8, 8, 192)    37056       average_pooling2d_18[0][0]       
__________________________________________________________________________________________________
concatenate_48 (Concatenate)    (None, 8, 8, 384)    0           conv2d_66[0][0]                  
                                                                 conv2d_67[0][0]                  
__________________________________________________________________________________________________
average_pooling2d_39 (AveragePo (None, 8, 8, 192)    0           batch_normalization_29[0][0]     
__________________________________________________________________________________________________
average_pooling2d_40 (AveragePo (None, 8, 8, 192)    0           batch_normalization_29[0][0]     
__________________________________________________________________________________________________
average_pooling2d_27 (AveragePo (None, 8, 8, 192)    0           batch_normalization_42[0][0]     
__________________________________________________________________________________________________
average_pooling2d_28 (AveragePo (None, 8, 8, 192)    0           batch_normalization_42[0][0]     
__________________________________________________________________________________________________
batch_normalization_58 (BatchNo (None, 8, 8, 384)    1536        concatenate_48[0][0]             
__________________________________________________________________________________________________
conv2d_88 (Conv2D)              (None, 8, 8, 192)    37056       average_pooling2d_39[0][0]       
__________________________________________________________________________________________________
conv2d_89 (Conv2D)              (None, 8, 8, 192)    37056       average_pooling2d_40[0][0]       
__________________________________________________________________________________________________
conv2d_76 (Conv2D)              (None, 8, 8, 192)    37056       average_pooling2d_27[0][0]       
__________________________________________________________________________________________________
conv2d_77 (Conv2D)              (None, 8, 8, 192)    37056       average_pooling2d_28[0][0]       
__________________________________________________________________________________________________
average_pooling2d_21 (AveragePo (None, 8, 8, 192)    0           batch_normalization_51[0][0]     
__________________________________________________________________________________________________
average_pooling2d_22 (AveragePo (None, 8, 8, 192)    0           batch_normalization_51[0][0]     
__________________________________________________________________________________________________
activation_49 (Activation)      (None, 8, 8, 384)    0           batch_normalization_58[0][0]     
__________________________________________________________________________________________________
concatenate_59 (Concatenate)    (None, 8, 8, 384)    0           conv2d_88[0][0]                  
                                                                 conv2d_89[0][0]                  
__________________________________________________________________________________________________
concatenate_53 (Concatenate)    (None, 8, 8, 384)    0           conv2d_76[0][0]                  
                                                                 conv2d_77[0][0]                  
__________________________________________________________________________________________________
conv2d_70 (Conv2D)              (None, 8, 8, 192)    37056       average_pooling2d_21[0][0]       
__________________________________________________________________________________________________
conv2d_71 (Conv2D)              (None, 8, 8, 192)    37056       average_pooling2d_22[0][0]       
__________________________________________________________________________________________________
conv2d_98 (Conv2D)              (None, 8, 8, 384)    147840      activation_49[0][0]              
__________________________________________________________________________________________________
batch_normalization_69 (BatchNo (None, 8, 8, 384)    1536        concatenate_59[0][0]             
__________________________________________________________________________________________________
batch_normalization_63 (BatchNo (None, 8, 8, 384)    1536        concatenate_53[0][0]             
__________________________________________________________________________________________________
concatenate_50 (Concatenate)    (None, 8, 8, 384)    0           conv2d_70[0][0]                  
                                                                 conv2d_71[0][0]                  
__________________________________________________________________________________________________
batch_normalization_74 (BatchNo (None, 8, 8, 384)    1536        conv2d_98[0][0]                  
__________________________________________________________________________________________________
concatenate_64 (Concatenate)    (None, 8, 8, 768)    0           batch_normalization_69[0][0]     
                                                                 batch_normalization_63[0][0]     
__________________________________________________________________________________________________
batch_normalization_60 (BatchNo (None, 8, 8, 384)    1536        concatenate_50[0][0]             
__________________________________________________________________________________________________
activation_50 (Activation)      (None, 8, 8, 384)    0           batch_normalization_74[0][0]     
__________________________________________________________________________________________________
concatenate_65 (Concatenate)    (None, 8, 8, 1152)   0           concatenate_64[0][0]             
                                                                 batch_normalization_60[0][0]     
__________________________________________________________________________________________________
conv2d_99 (Conv2D)              (None, 8, 8, 384)    1327488     activation_50[0][0]              
__________________________________________________________________________________________________
concatenate_66 (Concatenate)    (None, 8, 8, 1536)   0           concatenate_65[0][0]             
                                                                 batch_normalization_58[0][0]     
__________________________________________________________________________________________________
batch_normalization_75 (BatchNo (None, 8, 8, 384)    1536        conv2d_99[0][0]                  
__________________________________________________________________________________________________
average_pooling2d_47 (AveragePo (None, 8, 8, 192)    0           batch_normalization_33[0][0]     
__________________________________________________________________________________________________
average_pooling2d_48 (AveragePo (None, 8, 8, 192)    0           batch_normalization_33[0][0]     
__________________________________________________________________________________________________
concatenate_67 (Concatenate)    (None, 8, 8, 1920)   0           concatenate_66[0][0]             
                                                                 batch_normalization_75[0][0]     
__________________________________________________________________________________________________
average_pooling2d_45 (AveragePo (None, 8, 8, 192)    0           batch_normalization_32[0][0]     
__________________________________________________________________________________________________
average_pooling2d_46 (AveragePo (None, 8, 8, 192)    0           batch_normalization_32[0][0]     
__________________________________________________________________________________________________
conv2d_96 (Conv2D)              (None, 8, 8, 192)    37056       average_pooling2d_47[0][0]       
__________________________________________________________________________________________________
conv2d_97 (Conv2D)              (None, 8, 8, 192)    37056       average_pooling2d_48[0][0]       
__________________________________________________________________________________________________
activation_51 (Activation)      (None, 8, 8, 1920)   0           concatenate_67[0][0]             
__________________________________________________________________________________________________
conv2d_94 (Conv2D)              (None, 8, 8, 192)    37056       average_pooling2d_45[0][0]       
__________________________________________________________________________________________________
conv2d_95 (Conv2D)              (None, 8, 8, 192)    37056       average_pooling2d_46[0][0]       
__________________________________________________________________________________________________
average_pooling2d_43 (AveragePo (None, 8, 8, 192)    0           batch_normalization_31[0][0]     
__________________________________________________________________________________________________
average_pooling2d_44 (AveragePo (None, 8, 8, 192)    0           batch_normalization_31[0][0]     
__________________________________________________________________________________________________
concatenate_63 (Concatenate)    (None, 8, 8, 384)    0           conv2d_96[0][0]                  
                                                                 conv2d_97[0][0]                  
__________________________________________________________________________________________________
conv2d_100 (Conv2D)             (None, 8, 8, 384)    737664      activation_51[0][0]              
__________________________________________________________________________________________________
concatenate_62 (Concatenate)    (None, 8, 8, 384)    0           conv2d_94[0][0]                  
                                                                 conv2d_95[0][0]                  
__________________________________________________________________________________________________
conv2d_92 (Conv2D)              (None, 8, 8, 192)    37056       average_pooling2d_43[0][0]       
__________________________________________________________________________________________________
conv2d_93 (Conv2D)              (None, 8, 8, 192)    37056       average_pooling2d_44[0][0]       
__________________________________________________________________________________________________
average_pooling2d_41 (AveragePo (None, 8, 8, 192)    0           batch_normalization_30[0][0]     
__________________________________________________________________________________________________
average_pooling2d_42 (AveragePo (None, 8, 8, 192)    0           batch_normalization_30[0][0]     
__________________________________________________________________________________________________
batch_normalization_73 (BatchNo (None, 8, 8, 384)    1536        concatenate_63[0][0]             
__________________________________________________________________________________________________
batch_normalization_76 (BatchNo (None, 8, 8, 384)    1536        conv2d_100[0][0]                 
__________________________________________________________________________________________________
batch_normalization_72 (BatchNo (None, 8, 8, 384)    1536        concatenate_62[0][0]             
__________________________________________________________________________________________________
concatenate_61 (Concatenate)    (None, 8, 8, 384)    0           conv2d_92[0][0]                  
                                                                 conv2d_93[0][0]                  
__________________________________________________________________________________________________
conv2d_90 (Conv2D)              (None, 8, 8, 192)    37056       average_pooling2d_41[0][0]       
__________________________________________________________________________________________________
conv2d_91 (Conv2D)              (None, 8, 8, 192)    37056       average_pooling2d_42[0][0]       
__________________________________________________________________________________________________
concatenate_68 (Concatenate)    (None, 8, 8, 768)    0           batch_normalization_73[0][0]     
                                                                 batch_normalization_72[0][0]     
__________________________________________________________________________________________________
batch_normalization_71 (BatchNo (None, 8, 8, 384)    1536        concatenate_61[0][0]             
__________________________________________________________________________________________________
concatenate_60 (Concatenate)    (None, 8, 8, 384)    0           conv2d_90[0][0]                  
                                                                 conv2d_91[0][0]                  
__________________________________________________________________________________________________
average_pooling2d_37 (AveragePo (None, 8, 8, 192)    0           batch_normalization_28[0][0]     
__________________________________________________________________________________________________
average_pooling2d_38 (AveragePo (None, 8, 8, 192)    0           batch_normalization_28[0][0]     
__________________________________________________________________________________________________
activation_52 (Activation)      (None, 8, 8, 384)    0           batch_normalization_76[0][0]     
__________________________________________________________________________________________________
concatenate_69 (Concatenate)    (None, 8, 8, 1152)   0           concatenate_68[0][0]             
                                                                 batch_normalization_71[0][0]     
__________________________________________________________________________________________________
batch_normalization_70 (BatchNo (None, 8, 8, 384)    1536        concatenate_60[0][0]             
__________________________________________________________________________________________________
conv2d_86 (Conv2D)              (None, 8, 8, 192)    37056       average_pooling2d_37[0][0]       
__________________________________________________________________________________________________
conv2d_87 (Conv2D)              (None, 8, 8, 192)    37056       average_pooling2d_38[0][0]       
__________________________________________________________________________________________________
average_pooling2d_33 (AveragePo (None, 8, 8, 192)    0           batch_normalization_26[0][0]     
__________________________________________________________________________________________________
average_pooling2d_34 (AveragePo (None, 8, 8, 192)    0           batch_normalization_26[0][0]     
__________________________________________________________________________________________________
conv2d_101 (Conv2D)             (None, 8, 8, 384)    147840      activation_52[0][0]              
__________________________________________________________________________________________________
concatenate_70 (Concatenate)    (None, 8, 8, 1536)   0           concatenate_69[0][0]             
                                                                 batch_normalization_70[0][0]     
__________________________________________________________________________________________________
concatenate_58 (Concatenate)    (None, 8, 8, 384)    0           conv2d_86[0][0]                  
                                                                 conv2d_87[0][0]                  
__________________________________________________________________________________________________
conv2d_82 (Conv2D)              (None, 8, 8, 192)    37056       average_pooling2d_33[0][0]       
__________________________________________________________________________________________________
conv2d_83 (Conv2D)              (None, 8, 8, 192)    37056       average_pooling2d_34[0][0]       
__________________________________________________________________________________________________
batch_normalization_77 (BatchNo (None, 8, 8, 384)    1536        conv2d_101[0][0]                 
__________________________________________________________________________________________________
concatenate_71 (Concatenate)    (None, 8, 8, 1920)   0           concatenate_70[0][0]             
                                                                 batch_normalization_69[0][0]     
__________________________________________________________________________________________________
batch_normalization_68 (BatchNo (None, 8, 8, 384)    1536        concatenate_58[0][0]             
__________________________________________________________________________________________________
concatenate_56 (Concatenate)    (None, 8, 8, 384)    0           conv2d_82[0][0]                  
                                                                 conv2d_83[0][0]                  
__________________________________________________________________________________________________
activation_53 (Activation)      (None, 8, 8, 384)    0           batch_normalization_77[0][0]     
__________________________________________________________________________________________________
concatenate_72 (Concatenate)    (None, 8, 8, 2304)   0           concatenate_71[0][0]             
                                                                 batch_normalization_68[0][0]     
__________________________________________________________________________________________________
batch_normalization_66 (BatchNo (None, 8, 8, 384)    1536        concatenate_56[0][0]             
__________________________________________________________________________________________________
conv2d_102 (Conv2D)             (None, 8, 8, 384)    1327488     activation_53[0][0]              
__________________________________________________________________________________________________
concatenate_73 (Concatenate)    (None, 8, 8, 2688)   0           concatenate_72[0][0]             
                                                                 batch_normalization_66[0][0]     
__________________________________________________________________________________________________
batch_normalization_78 (BatchNo (None, 8, 8, 384)    1536        conv2d_102[0][0]                 
__________________________________________________________________________________________________
concatenate_74 (Concatenate)    (None, 8, 8, 3072)   0           concatenate_73[0][0]             
                                                                 batch_normalization_78[0][0]     
__________________________________________________________________________________________________
activation_54 (Activation)      (None, 8, 8, 3072)   0           concatenate_74[0][0]             
__________________________________________________________________________________________________
conv2d_103 (Conv2D)             (None, 8, 8, 384)    1180032     activation_54[0][0]              
__________________________________________________________________________________________________
batch_normalization_79 (BatchNo (None, 8, 8, 384)    1536        conv2d_103[0][0]                 
__________________________________________________________________________________________________
average_pooling2d_29 (AveragePo (None, 8, 8, 192)    0           batch_normalization_39[0][0]     
__________________________________________________________________________________________________
average_pooling2d_30 (AveragePo (None, 8, 8, 192)    0           batch_normalization_39[0][0]     
__________________________________________________________________________________________________
conv2d_78 (Conv2D)              (None, 8, 8, 192)    37056       average_pooling2d_29[0][0]       
__________________________________________________________________________________________________
conv2d_79 (Conv2D)              (None, 8, 8, 192)    37056       average_pooling2d_30[0][0]       
__________________________________________________________________________________________________
activation_55 (Activation)      (None, 8, 8, 384)    0           batch_normalization_79[0][0]     
__________________________________________________________________________________________________
concatenate_54 (Concatenate)    (None, 8, 8, 384)    0           conv2d_78[0][0]                  
                                                                 conv2d_79[0][0]                  
__________________________________________________________________________________________________
average_pooling2d_19 (AveragePo (None, 8, 8, 192)    0           batch_normalization_54[0][0]     
__________________________________________________________________________________________________
average_pooling2d_20 (AveragePo (None, 8, 8, 192)    0           batch_normalization_54[0][0]     
__________________________________________________________________________________________________
conv2d_104 (Conv2D)             (None, 8, 8, 384)    147840      activation_55[0][0]              
__________________________________________________________________________________________________
concatenate_75 (Concatenate)    (None, 8, 8, 768)    0           batch_normalization_70[0][0]     
                                                                 batch_normalization_66[0][0]     
__________________________________________________________________________________________________
batch_normalization_64 (BatchNo (None, 8, 8, 384)    1536        concatenate_54[0][0]             
__________________________________________________________________________________________________
conv2d_68 (Conv2D)              (None, 8, 8, 192)    37056       average_pooling2d_19[0][0]       
__________________________________________________________________________________________________
conv2d_69 (Conv2D)              (None, 8, 8, 192)    37056       average_pooling2d_20[0][0]       
__________________________________________________________________________________________________
batch_normalization_80 (BatchNo (None, 8, 8, 384)    1536        conv2d_104[0][0]                 
__________________________________________________________________________________________________
concatenate_76 (Concatenate)    (None, 8, 8, 1152)   0           concatenate_75[0][0]             
                                                                 batch_normalization_64[0][0]     
__________________________________________________________________________________________________
concatenate_49 (Concatenate)    (None, 8, 8, 384)    0           conv2d_68[0][0]                  
                                                                 conv2d_69[0][0]                  
__________________________________________________________________________________________________
activation_56 (Activation)      (None, 8, 8, 384)    0           batch_normalization_80[0][0]     
__________________________________________________________________________________________________
concatenate_77 (Concatenate)    (None, 8, 8, 1536)   0           concatenate_76[0][0]             
                                                                 batch_normalization_63[0][0]     
__________________________________________________________________________________________________
batch_normalization_59 (BatchNo (None, 8, 8, 384)    1536        concatenate_49[0][0]             
__________________________________________________________________________________________________
conv2d_105 (Conv2D)             (None, 8, 8, 384)    1327488     activation_56[0][0]              
__________________________________________________________________________________________________
average_pooling2d_31 (AveragePo (None, 8, 8, 192)    0           batch_normalization_36[0][0]     
__________________________________________________________________________________________________
average_pooling2d_32 (AveragePo (None, 8, 8, 192)    0           batch_normalization_36[0][0]     
__________________________________________________________________________________________________
concatenate_78 (Concatenate)    (None, 8, 8, 1920)   0           concatenate_77[0][0]             
                                                                 batch_normalization_59[0][0]     
__________________________________________________________________________________________________
batch_normalization_81 (BatchNo (None, 8, 8, 384)    1536        conv2d_105[0][0]                 
__________________________________________________________________________________________________
conv2d_80 (Conv2D)              (None, 8, 8, 192)    37056       average_pooling2d_31[0][0]       
__________________________________________________________________________________________________
conv2d_81 (Conv2D)              (None, 8, 8, 192)    37056       average_pooling2d_32[0][0]       
__________________________________________________________________________________________________
concatenate_79 (Concatenate)    (None, 8, 8, 2304)   0           concatenate_78[0][0]             
                                                                 batch_normalization_81[0][0]     
__________________________________________________________________________________________________
concatenate_55 (Concatenate)    (None, 8, 8, 384)    0           conv2d_80[0][0]                  
                                                                 conv2d_81[0][0]                  
__________________________________________________________________________________________________
activation_57 (Activation)      (None, 8, 8, 2304)   0           concatenate_79[0][0]             
__________________________________________________________________________________________________
batch_normalization_65 (BatchNo (None, 8, 8, 384)    1536        concatenate_55[0][0]             
__________________________________________________________________________________________________
average_pooling2d_25 (AveragePo (None, 8, 8, 192)    0           batch_normalization_45[0][0]     
__________________________________________________________________________________________________
average_pooling2d_26 (AveragePo (None, 8, 8, 192)    0           batch_normalization_45[0][0]     
__________________________________________________________________________________________________
conv2d_106 (Conv2D)             (None, 8, 8, 384)    885120      activation_57[0][0]              
__________________________________________________________________________________________________
concatenate_80 (Concatenate)    (None, 8, 8, 768)    0           batch_normalization_71[0][0]     
                                                                 batch_normalization_69[0][0]     
__________________________________________________________________________________________________
conv2d_74 (Conv2D)              (None, 8, 8, 192)    37056       average_pooling2d_25[0][0]       
__________________________________________________________________________________________________
conv2d_75 (Conv2D)              (None, 8, 8, 192)    37056       average_pooling2d_26[0][0]       
__________________________________________________________________________________________________
batch_normalization_82 (BatchNo (None, 8, 8, 384)    1536        conv2d_106[0][0]                 
__________________________________________________________________________________________________
average_pooling2d_23 (AveragePo (None, 8, 8, 192)    0           batch_normalization_48[0][0]     
__________________________________________________________________________________________________
average_pooling2d_24 (AveragePo (None, 8, 8, 192)    0           batch_normalization_48[0][0]     
__________________________________________________________________________________________________
concatenate_81 (Concatenate)    (None, 8, 8, 1152)   0           concatenate_80[0][0]             
                                                                 batch_normalization_65[0][0]     
__________________________________________________________________________________________________
concatenate_52 (Concatenate)    (None, 8, 8, 384)    0           conv2d_74[0][0]                  
                                                                 conv2d_75[0][0]                  
__________________________________________________________________________________________________
conv2d_72 (Conv2D)              (None, 8, 8, 192)    37056       average_pooling2d_23[0][0]       
__________________________________________________________________________________________________
conv2d_73 (Conv2D)              (None, 8, 8, 192)    37056       average_pooling2d_24[0][0]       
__________________________________________________________________________________________________
concatenate_82 (Concatenate)    (None, 8, 8, 1536)   0           concatenate_81[0][0]             
                                                                 batch_normalization_64[0][0]     
__________________________________________________________________________________________________
activation_58 (Activation)      (None, 8, 8, 384)    0           batch_normalization_82[0][0]     
__________________________________________________________________________________________________
batch_normalization_62 (BatchNo (None, 8, 8, 384)    1536        concatenate_52[0][0]             
__________________________________________________________________________________________________
concatenate_51 (Concatenate)    (None, 8, 8, 384)    0           conv2d_72[0][0]                  
                                                                 conv2d_73[0][0]                  
__________________________________________________________________________________________________
concatenate_83 (Concatenate)    (None, 8, 8, 1920)   0           concatenate_82[0][0]             
                                                                 batch_normalization_63[0][0]     
__________________________________________________________________________________________________
conv2d_107 (Conv2D)             (None, 8, 8, 384)    147840      activation_58[0][0]              
__________________________________________________________________________________________________
batch_normalization_61 (BatchNo (None, 8, 8, 384)    1536        concatenate_51[0][0]             
__________________________________________________________________________________________________
concatenate_84 (Concatenate)    (None, 8, 8, 2304)   0           concatenate_83[0][0]             
                                                                 batch_normalization_62[0][0]     
__________________________________________________________________________________________________
batch_normalization_83 (BatchNo (None, 8, 8, 384)    1536        conv2d_107[0][0]                 
__________________________________________________________________________________________________
concatenate_85 (Concatenate)    (None, 8, 8, 2688)   0           concatenate_84[0][0]             
                                                                 batch_normalization_61[0][0]     
__________________________________________________________________________________________________
activation_59 (Activation)      (None, 8, 8, 384)    0           batch_normalization_83[0][0]     
__________________________________________________________________________________________________
concatenate_86 (Concatenate)    (None, 8, 8, 3072)   0           concatenate_85[0][0]             
                                                                 batch_normalization_60[0][0]     
__________________________________________________________________________________________________
conv2d_108 (Conv2D)             (None, 8, 8, 384)    3686784     activation_59[0][0]              
__________________________________________________________________________________________________
concatenate_87 (Concatenate)    (None, 8, 8, 3456)   0           concatenate_86[0][0]             
                                                                 batch_normalization_82[0][0]     
__________________________________________________________________________________________________
batch_normalization_84 (BatchNo (None, 8, 8, 384)    1536        conv2d_108[0][0]                 
__________________________________________________________________________________________________
concatenate_89 (Concatenate)    (None, 8, 8, 768)    0           batch_normalization_73[0][0]     
                                                                 batch_normalization_70[0][0]     
__________________________________________________________________________________________________
concatenate_88 (Concatenate)    (None, 8, 8, 3840)   0           concatenate_87[0][0]             
                                                                 batch_normalization_84[0][0]     
__________________________________________________________________________________________________
concatenate_90 (Concatenate)    (None, 8, 8, 1152)   0           concatenate_89[0][0]             
                                                                 batch_normalization_66[0][0]     
__________________________________________________________________________________________________
activation_60 (Activation)      (None, 8, 8, 3840)   0           concatenate_88[0][0]             
__________________________________________________________________________________________________
concatenate_91 (Concatenate)    (None, 8, 8, 1536)   0           concatenate_90[0][0]             
                                                                 batch_normalization_65[0][0]     
__________________________________________________________________________________________________
conv2d_109 (Conv2D)             (None, 8, 8, 384)    1474944     activation_60[0][0]              
__________________________________________________________________________________________________
concatenate_92 (Concatenate)    (None, 8, 8, 1920)   0           concatenate_91[0][0]             
                                                                 batch_normalization_64[0][0]     
__________________________________________________________________________________________________
batch_normalization_85 (BatchNo (None, 8, 8, 384)    1536        conv2d_109[0][0]                 
__________________________________________________________________________________________________
concatenate_93 (Concatenate)    (None, 8, 8, 2304)   0           concatenate_92[0][0]             
                                                                 batch_normalization_61[0][0]     
__________________________________________________________________________________________________
activation_61 (Activation)      (None, 8, 8, 384)    0           batch_normalization_85[0][0]     
__________________________________________________________________________________________________
concatenate_94 (Concatenate)    (None, 8, 8, 2688)   0           concatenate_93[0][0]             
                                                                 batch_normalization_60[0][0]     
__________________________________________________________________________________________________
conv2d_110 (Conv2D)             (None, 8, 8, 384)    147840      activation_61[0][0]              
__________________________________________________________________________________________________
concatenate_95 (Concatenate)    (None, 8, 8, 3072)   0           concatenate_94[0][0]             
                                                                 batch_normalization_59[0][0]     
__________________________________________________________________________________________________
batch_normalization_86 (BatchNo (None, 8, 8, 384)    1536        conv2d_110[0][0]                 
__________________________________________________________________________________________________
concatenate_96 (Concatenate)    (None, 8, 8, 3456)   0           concatenate_95[0][0]             
                                                                 batch_normalization_58[0][0]     
__________________________________________________________________________________________________
activation_62 (Activation)      (None, 8, 8, 384)    0           batch_normalization_86[0][0]     
__________________________________________________________________________________________________
concatenate_97 (Concatenate)    (None, 8, 8, 3840)   0           concatenate_96[0][0]             
                                                                 batch_normalization_79[0][0]     
__________________________________________________________________________________________________
conv2d_111 (Conv2D)             (None, 8, 8, 384)    3686784     activation_62[0][0]              
__________________________________________________________________________________________________
concatenate_98 (Concatenate)    (None, 8, 8, 4224)   0           concatenate_97[0][0]             
                                                                 batch_normalization_85[0][0]     
__________________________________________________________________________________________________
batch_normalization_87 (BatchNo (None, 8, 8, 384)    1536        conv2d_111[0][0]                 
__________________________________________________________________________________________________
concatenate_99 (Concatenate)    (None, 8, 8, 4608)   0           concatenate_98[0][0]             
                                                                 batch_normalization_87[0][0]     
__________________________________________________________________________________________________
activation_63 (Activation)      (None, 8, 8, 4608)   0           concatenate_99[0][0]             
__________________________________________________________________________________________________
conv2d_112 (Conv2D)             (None, 8, 8, 384)    1769856     activation_63[0][0]              
__________________________________________________________________________________________________
batch_normalization_88 (BatchNo (None, 8, 8, 384)    1536        conv2d_112[0][0]                 
__________________________________________________________________________________________________
concatenate_100 (Concatenate)   (None, 8, 8, 768)    0           batch_normalization_71[0][0]     
                                                                 batch_normalization_65[0][0]     
__________________________________________________________________________________________________
activation_64 (Activation)      (None, 8, 8, 384)    0           batch_normalization_88[0][0]     
__________________________________________________________________________________________________
concatenate_101 (Concatenate)   (None, 8, 8, 1152)   0           concatenate_100[0][0]            
                                                                 batch_normalization_60[0][0]     
__________________________________________________________________________________________________
conv2d_113 (Conv2D)             (None, 8, 8, 384)    147840      activation_64[0][0]              
__________________________________________________________________________________________________
concatenate_102 (Concatenate)   (None, 8, 8, 1536)   0           concatenate_101[0][0]            
                                                                 batch_normalization_76[0][0]     
__________________________________________________________________________________________________
batch_normalization_89 (BatchNo (None, 8, 8, 384)    1536        conv2d_113[0][0]                 
__________________________________________________________________________________________________
concatenate_103 (Concatenate)   (None, 8, 8, 1920)   0           concatenate_102[0][0]            
                                                                 batch_normalization_79[0][0]     
__________________________________________________________________________________________________
activation_65 (Activation)      (None, 8, 8, 384)    0           batch_normalization_89[0][0]     
__________________________________________________________________________________________________
concatenate_104 (Concatenate)   (None, 8, 8, 2304)   0           concatenate_103[0][0]            
                                                                 batch_normalization_85[0][0]     
__________________________________________________________________________________________________
conv2d_114 (Conv2D)             (None, 8, 8, 384)    3686784     activation_65[0][0]              
__________________________________________________________________________________________________
concatenate_105 (Concatenate)   (None, 8, 8, 2688)   0           concatenate_104[0][0]            
                                                                 batch_normalization_88[0][0]     
__________________________________________________________________________________________________
batch_normalization_90 (BatchNo (None, 8, 8, 384)    1536        conv2d_114[0][0]                 
__________________________________________________________________________________________________
concatenate_106 (Concatenate)   (None, 8, 8, 3072)   0           concatenate_105[0][0]            
                                                                 batch_normalization_90[0][0]     
__________________________________________________________________________________________________
activation_66 (Activation)      (None, 8, 8, 3072)   0           concatenate_106[0][0]            
__________________________________________________________________________________________________
conv2d_115 (Conv2D)             (None, 8, 8, 384)    1180032     activation_66[0][0]              
__________________________________________________________________________________________________
concatenate_107 (Concatenate)   (None, 8, 8, 768)    0           batch_normalization_71[0][0]     
                                                                 batch_normalization_70[0][0]     
__________________________________________________________________________________________________
batch_normalization_91 (BatchNo (None, 8, 8, 384)    1536        conv2d_115[0][0]                 
__________________________________________________________________________________________________
concatenate_108 (Concatenate)   (None, 8, 8, 1152)   0           concatenate_107[0][0]            
                                                                 batch_normalization_68[0][0]     
__________________________________________________________________________________________________
concatenate_109 (Concatenate)   (None, 8, 8, 1536)   0           concatenate_108[0][0]            
                                                                 batch_normalization_66[0][0]     
__________________________________________________________________________________________________
activation_67 (Activation)      (None, 8, 8, 384)    0           batch_normalization_91[0][0]     
__________________________________________________________________________________________________
concatenate_110 (Concatenate)   (None, 8, 8, 1920)   0           concatenate_109[0][0]            
                                                                 batch_normalization_63[0][0]     
__________________________________________________________________________________________________
conv2d_116 (Conv2D)             (None, 8, 8, 384)    147840      activation_67[0][0]              
__________________________________________________________________________________________________
concatenate_111 (Concatenate)   (None, 8, 8, 2304)   0           concatenate_110[0][0]            
                                                                 batch_normalization_61[0][0]     
__________________________________________________________________________________________________
batch_normalization_92 (BatchNo (None, 8, 8, 384)    1536        conv2d_116[0][0]                 
__________________________________________________________________________________________________
concatenate_112 (Concatenate)   (None, 8, 8, 2688)   0           concatenate_111[0][0]            
                                                                 batch_normalization_76[0][0]     
__________________________________________________________________________________________________
activation_68 (Activation)      (None, 8, 8, 384)    0           batch_normalization_92[0][0]     
__________________________________________________________________________________________________
concatenate_113 (Concatenate)   (None, 8, 8, 3072)   0           concatenate_112[0][0]            
                                                                 batch_normalization_79[0][0]     
__________________________________________________________________________________________________
conv2d_117 (Conv2D)             (None, 8, 8, 384)    3686784     activation_68[0][0]              
__________________________________________________________________________________________________
concatenate_114 (Concatenate)   (None, 8, 8, 3456)   0           concatenate_113[0][0]            
                                                                 batch_normalization_91[0][0]     
__________________________________________________________________________________________________
batch_normalization_93 (BatchNo (None, 8, 8, 384)    1536        conv2d_117[0][0]                 
__________________________________________________________________________________________________
concatenate_115 (Concatenate)   (None, 8, 8, 3840)   0           concatenate_114[0][0]            
                                                                 batch_normalization_93[0][0]     
__________________________________________________________________________________________________
concatenate_116 (Concatenate)   (None, 8, 8, 768)    0           batch_normalization_73[0][0]     
                                                                 batch_normalization_69[0][0]     
__________________________________________________________________________________________________
activation_69 (Activation)      (None, 8, 8, 3840)   0           concatenate_115[0][0]            
__________________________________________________________________________________________________
concatenate_117 (Concatenate)   (None, 8, 8, 1152)   0           concatenate_116[0][0]            
                                                                 batch_normalization_65[0][0]     
__________________________________________________________________________________________________
conv2d_118 (Conv2D)             (None, 8, 8, 384)    1474944     activation_69[0][0]              
__________________________________________________________________________________________________
concatenate_118 (Concatenate)   (None, 8, 8, 1536)   0           concatenate_117[0][0]            
                                                                 batch_normalization_63[0][0]     
__________________________________________________________________________________________________
batch_normalization_94 (BatchNo (None, 8, 8, 384)    1536        conv2d_118[0][0]                 
__________________________________________________________________________________________________
concatenate_119 (Concatenate)   (None, 8, 8, 1920)   0           concatenate_118[0][0]            
                                                                 batch_normalization_62[0][0]     
__________________________________________________________________________________________________
activation_70 (Activation)      (None, 8, 8, 384)    0           batch_normalization_94[0][0]     
__________________________________________________________________________________________________
concatenate_120 (Concatenate)   (None, 8, 8, 2304)   0           concatenate_119[0][0]            
                                                                 batch_normalization_76[0][0]     
__________________________________________________________________________________________________
conv2d_119 (Conv2D)             (None, 8, 8, 384)    147840      activation_70[0][0]              
__________________________________________________________________________________________________
concatenate_121 (Concatenate)   (None, 8, 8, 2688)   0           concatenate_120[0][0]            
                                                                 batch_normalization_79[0][0]     
__________________________________________________________________________________________________
batch_normalization_95 (BatchNo (None, 8, 8, 384)    1536        conv2d_119[0][0]                 
__________________________________________________________________________________________________
concatenate_122 (Concatenate)   (None, 8, 8, 3072)   0           concatenate_121[0][0]            
                                                                 batch_normalization_82[0][0]     
__________________________________________________________________________________________________
activation_71 (Activation)      (None, 8, 8, 384)    0           batch_normalization_95[0][0]     
__________________________________________________________________________________________________
concatenate_123 (Concatenate)   (None, 8, 8, 3456)   0           concatenate_122[0][0]            
                                                                 batch_normalization_88[0][0]     
__________________________________________________________________________________________________
conv2d_120 (Conv2D)             (None, 8, 8, 384)    3686784     activation_71[0][0]              
__________________________________________________________________________________________________
concatenate_124 (Concatenate)   (None, 8, 8, 3840)   0           concatenate_123[0][0]            
                                                                 batch_normalization_91[0][0]     
__________________________________________________________________________________________________
batch_normalization_96 (BatchNo (None, 8, 8, 384)    1536        conv2d_120[0][0]                 
__________________________________________________________________________________________________
concatenate_125 (Concatenate)   (None, 8, 8, 4224)   0           concatenate_124[0][0]            
                                                                 batch_normalization_96[0][0]     
__________________________________________________________________________________________________
activation_72 (Activation)      (None, 8, 8, 4224)   0           concatenate_125[0][0]            
__________________________________________________________________________________________________
conv2d_121 (Conv2D)             (None, 8, 8, 384)    1622400     activation_72[0][0]              
__________________________________________________________________________________________________
batch_normalization_97 (BatchNo (None, 8, 8, 384)    1536        conv2d_121[0][0]                 
__________________________________________________________________________________________________
global_average_pooling2d_1 (Glo (None, 384)          0           batch_normalization_97[0][0]     
__________________________________________________________________________________________________
dropout_1 (Dropout)             (None, 384)          0           global_average_pooling2d_1[0][0] 
__________________________________________________________________________________________________
dense_1 (Dense)                 (None, 10)           3850        dropout_1[0][0]                  
==================================================================================================
Total params: 43,540,618
Trainable params: 43,493,578
Non-trainable params: 47,040
__________________________________________________________________________________________________
None
